weather-prediction/models/trained_model.pth (torch, 61043 bytes, 19 tensors)

fc1.weight f4 [128, 16]
0.08927249 0.09917594 0.10746981 -0.09296782 -0.10194509 -0.17762099 -0.26697138 -0.0775234
0.25771818 -0.089374036 -0.003337174 -0.04355 -0.11442226 0.12640344 0.20399702 0.14516965
-0.17968006 -0.1710767 0.030054484 0.08294131 -0.21352668 -0.048130497 0.06827301 0.19134179
-0.0053601377 0.17610396 -0.031486336 -0.08505798 -0.004693175 -0.09268947 0.09929411 0.02620457
-0.0207584 0.11068719 0.22768597 -0.36846963 -0.13710298 -0.12489637 0.05065463 0.19178537
-0.066876195 -0.08177324 -0.072327286 -0.07964971 0.08716049 -0.010436629 0.29688767 0.09859494
0.1895487 -0.059308596 0.137239 0.15999475 -0.23805673 -0.07882969 -0.13004364 -0.17433639
-0.21545583 0.08942802 -0.041120995 0.029079614 -0.11632136 0.21834534 -0.120270215 0.10956172
-0.21707182 -0.03420212 0.30267212 -0.017970901 -0.1085157 0.25373852 -0.100859374 0.09505594
-0.10745489 0.27252892 -0.23648018 0.018124113 -0.17478187 0.06549707 0.119758196 -0.18429624
-0.04787224 -0.25712773 0.3321829 -0.035841435 -0.048256285 -0.24389838 0.13683085 -0.13146509
0.03153982 0.03496994 -0.028409293 -0.13242476 -0.055263326 0.037348166 0.10237446 -0.048819494
-0.013589088 -0.36198574 0.0005254666 -0.05296139 -0.074768715 0.2449393 0.020208608 0.044108123
-0.14309281 0.14087415 -0.121688716 -0.049822345 -0.11586537 -0.15187842 0.22756405 0.032631528
0.17169349 -0.05624871 -0.10006825 -0.064519286 0.044184297 -0.17712873 0.06794615 -0.18396251
-0.12841523 0.17424373 0.08864445 0.1283947 -0.062435526 0.32262388 0.070596986 -0.008351342
-0.23344845 0.18893136 -0.05115853 0.16376817 -0.21516214 -0.10276237 0.16833864 -0.18219005
0.15168118 0.079915084 -0.047943503 -0.0065223807 0.11708593 0.13429382 0.3804294 0.2520421
-0.009903828 0.031650964 0.024273874 -0.6865419 -0.17402914 -0.1887096 0.0313106 -0.07845642
-0.042894885 -0.21660213 -0.2519493 0.035147425 -0.20690176 -0.24281114 -0.13663752 0.070979826
0.06933985 -0.019666702 -0.000977197 0.3644837 0.04410434 -0.006672261 -0.08126403 -0.19599757
-0.1042318 -0.2051558 -0.12302443 0.23926742 0.065505 -0.26989332 0.02809031 -0.24252018
0.13886818 0.21174738 -0.01603658 -0.4759141 0.12689915 0.24503906 0.0444427 0.06989123
-0.11475302 -0.19873604 0.111961454 0.1298822 -0.21970654 0.1685278 -0.1567076 -0.049656384
-0.123730145 0.06897094 -0.06289244 -0.12572558 -0.19376498 -0.2818612 -0.06263277 -0.22101226
0.21784402 -0.28801876 0.06989575 0.15518469 0.09417797 0.2130276 0.18177025 -0.080956385
-0.15069279 -0.23609583 0.0031201444 0.2009746 0.076445736 -0.13405578 -0.011770119 -0.14275606
0.148778 -0.052723896 -0.17327215 0.051038675 0.17505488 0.09065645 -0.15799429 -0.1964225
0.070232764 -0.23997454 0.113583714 0.5079665 0.23384598 0.17518416 -0.038448416 -0.19961952
-0.023442812 -0.08379112 0.09812558 0.073623806 0.2695087 0.023174344 0.01665726 0.3296144
-0.12517367 -0.06798387 -0.20051186 -0.21159996 0.12460842 -0.029042343 0.08328417 0.21715976
0.0042151883 0.30439362 0.30754876 -0.20916396 0.14137089 -0.14527215 -0.12148798 0.07837027
00000000: 7fd4 b63d c11c cb3d 2219 dc3d ea65 bebd
00000010: 96c8 d0bd 47e2 35be 79b0 88be 97c4 9ebd
00000020: a3f3 833e bc09 b7bd 7db4 5abb 7c61 32bd
00000030: 3856 eabd e76f 013e 98e4 503e 5aa7 143e
00000040: 0dfe 37be bb2e 2fbe d234 f63c 22dd a93d
00000050: bda6 5abe 7c24 45bd b8d2 8b3d 1aef 433e
00000060: 18a4 afbb 9954 343e d1f7 00bd e132 aebd
00000070: 35c9 99bb fad3 bdbd b65a cb3d f7aa d63c
00000080: 850d aabc f7af e23d 8326 693e 0da8 bcbe
00000090: b964 0cbe abc9 ffbd 3b7b 4f3d 6263 443e
000000a0: 63f6 88bd ba78 a7bd 5420 94bd 631f a3bd
000000b0: 3381 b23d 65fe 2abc a901 983e 25ec c93d
000000c0: 0e19 423e 92ed 72bd 6188 0c3e aad5 233e
000000d0: 25c5 73be 7671 a1bd 292a 05be 3d85 32be
000000e0: 74a0 5cbe 0a26 b73d 7d6e 28bd 5f38 ee3c
000000f0: e539 eebd ec95 5f3e 3b50 f6bd e561 e03d
00000100: 1348 5ebe 8617 0cbd d7f7 9a3e b637 93bc
00000110: 7b3d debd 04ea 813e 5c8f cebd b0ac c23d
00000120: 4f11 dcbd e988 8b3e dc27 72be 0579 943c
00000130: 05fa 32be 5423 863d c943 f53d 27b8 3cbe
00000140: af15 44bd 3fa6 83be e113 aa3e 78ce 12bd
00000150: 62a8 45bd 7fc0 79be 631d 0c3e c99e 06be
00000160: e62f 013d a43c 0f3d 9bba e8bc 5b9a 07be
00000170: cc5b 62bd 64fa 183d b3a9 d13d f3f6 47bd
00000180: c4a4 5ebc 3256 b9be 77bf 093a 0bee 58bd
00000190: 5720 99bd 5ed1 7a3e 868c a53c b8aa 343d
000001a0: ec86 12be 5041 103e ef37 f9bd 8412 4cbd
000001b0: d34a edbd 0486 1bbe 8d06 693e a3a8 053d
000001c0: 6bd0 2f3e 0c65 66bd 95f0 ccbd b022 84bd
000001d0: 98fa 343d 3c61 35be 5a27 8b3d ab60 3cbe
000001e0: 487f 03be f36c 323e 398b b53d e679 033e
000001f0: 65bc 7fbd f52e a53e 2795 903d 11d4 08bc
00000200: 1c0d 6fbe 3977 413e 9b8b 51bd d8b2 273e
00000210: 7753 5cbe 1475 d2bd f760 2c3e 0790 3abe
00000220: 5052 1b3e 85aa a33d 6860 44bd b2b9 d5bb
00000230: c0ca ef3d 5284 093e a4c7 c23e aa0b 813e
00000240: aa43 22bc 71a4 013d 01da c63c 36c1 2fbf
00000250: b234 32be 173d 41be 8b3f 003d c2ad a0bd
00000260: 8cb2 2fbd f3cc 5dbe 80ff 80be bff6 0f3d
00000270: 0ede 53be 7ca3 78be b5ea 0bbe df5d 913d
00000280: 0d02 8e3d 101c a1bc 4a15 80ba 9c9d ba3e
00000290: c1a6 343d fba2 dabb c16d a6bd 96b3 48be
000002a0: 7b77 d5bd 5d14 52be 3bf4 fbbd 8502 753e
000002b0: 7c27 863d 752f 8abe a61d e63c 3657 78be
000002c0: 7633 0e3e 4ed4 583e 255f 83bc 03ab f3be
000002d0: daf1 013e 85eb 7a3e 8c09 363d 2223 8f3d
000002e0: a203 ebbd 7681 4bbe 0c4c e53d d7ff 043e
000002f0: c0fa 60be 8d92 2c3e f577 20be 7e64 4bbd
00000300: 3b66 fdbd a340 8d3d c0cd 80bd 35be 00be
00000310: 546a 46be 1c50 90be 9c45 80bd 0a51 62be
00000320: 8112 5f3e 3277 93be 8125 8f3d bce8 1e3e
00000330: 61e0 c03d e823 5a3e fb21 3a3e 76cc a5bd
00000340: 364f 1abe 1bc3 71be 567b 4c3b 49cc 4d3e
00000350: 958f 9c3d eb45 09be 75d7 40bc a52e 12be
00000360: 4359 183e 03f5 57bd 416e 31be ee0d 513d
00000370: 9641 333e 17aa b93d 41c9 21be fb22 49be
00000380: 32d6 8f3d e3bb 75be 949e e83d 180a 023f
00000390: 5275 6f3e 7a63 333e 167c 1dbd 0f69 4cbe
000003a0: 240b c0bc ae9a abbd 10f6 c83d 14c8 963d
000003b0: 0bfd 893e 1fd8 bd3c ce74 883c 38c3 a83e
000003c0: 872d 00be 213b 8bbd fb52 4dbe a9ad 58be
000003d0: b332 ff3d 35ea edbc e490 aa3d 215f 5e3e
000003e0: 901f 8a3b 7bd9 9b3e 0877 9d3e 142f 56be
000003f0: 88c3 103e 39c2 14be b1ce f8bd 9880 a03d

fc1.bias f4 [128]
-0.079041086 -0.24098541 -0.23413344 0.21363032 -0.05278969 -0.14276592 -0.1279532 0.23430325
-0.16175494 -0.118007086 0.07629054 0.18403292 0.06934162 0.09559444 -0.11867273 -0.004406994
-0.07211566 -0.23298961 -0.08483799 0.21661553 -0.18859856 0.07911717 0.07384727 0.18502972
0.18964967 0.12231763 0.09328657 -0.13946348 -0.008575025 0.23440441 -0.16011186 0.18967836
-0.100655735 -0.18082154 -0.2350945 -0.05474666 -0.12009994 -0.19288066 0.15037331 -0.0322624
-0.001529163 0.0033255431 0.1916885 -0.2448229 0.20379275 0.18918133 -0.018701043 -0.00799126
-0.17605995 -0.19589901 0.08805827 0.061569862 0.09814913 0.15340538 0.006896763 -0.13435449
0.08313267 0.1771799 -0.040081203 -0.100283094 0.16390178 -0.04144799 0.21232232 -0.18152134
0.033030096 0.12926903 0.004591636 0.09242206 -0.19328679 0.113733076 -0.11596721 -0.19572818
0.14726841 -0.14310879 0.041081917 0.10815899 0.115273505 -0.03698353 -0.08070693 -0.12143049
-0.20546778 -0.15582624 -0.061844684 0.044292197 -0.06930429 0.23504789 -0.09528441 0.051431186
-0.17490608 -0.04968421 0.036630597 -0.13531373 -0.029682696 -0.22101884 0.16680732 -0.2307827
0.06701018 -0.03596012 0.041719936 0.11403248 -0.028001392 0.12228942 0.22280057 0.18922995
0.24648677 0.12853329 -0.052035563 -0.055315427 0.08276102 0.09935711 0.12128789 -0.10340414
0.17429335 0.1642951 -0.19982299 -0.0138871 -0.19425057 0.1440485 -0.16831392 -0.1278491
-0.057034627 0.083685175 0.12420494 -0.11343145 0.012890645 0.030120587 0.024524046 -0.06975162
00000000: 4be0 a1bd e1c4 76be adc0 6fbe e8c1 5a3e
00000010: 013a 58bd 3b31 12be 2a06 03be 31ed 6f3e
00000020: 16a3 25be b3ad f1bd 373e 9c3d 2073 3c3e
00000030: fb02 8e3d 05c7 c33d b00a f3bd 8c68 90bb
00000040: 60b1 93bd d494 6ebe 8abf adbd 76d0 5d3e
00000050: fb1f 41be 2f08 a23d 3d3d 973d 6e78 3d3e
00000060: 8633 423e aa81 fa3d 070d bf3d 84cf 0ebe
00000070: 437e 0cbc b607 703e 5df4 23be 0b3b 423e
00000080: 9824 cebd 4829 39be 9dbc 70be 093e 60bd
00000090: f5f6 f5bd 8282 45be 76fb 193e 9425 04bd
000000a0: 326e c8ba 5bf1 593b fd49 443e dbb2 7abe
000000b0: 0caf 503e c0b8 413e ee32 99bc c6ed 02bc
000000c0: 0f49 34be c099 48be e557 b43d ae30 7c3d
000000d0: 6902 c93d 4d16 1d3e 3efe e13b 3994 09be
000000e0: 7641 aa3d a66e 353e 302c 24bd 3961 cdbd
000000f0: ded5 273e 5ec5 29bd 066b 593e bbe0 39be
00000100: 914a 073d 1a5f 043e 6f75 963b c747 bd3d
00000110: f9ec 45be e3ec e83d 3780 edbd f86c 48be
00000120: 88cd 163e 1c8b 12be 8345 283d 7682 dd3d
00000130: 8414 ec3d 0b7c 17bd ad49 a5bd 8cb0 f8bd
00000140: 2566 52be ea90 1fbe da50 7dbd bc6b 353d
00000150: 68ef 8dbd 65b0 703e 7924 c3bd 82a9 523d
00000160: 941a 33be ac81 4bbd f709 163d af8f 0abe
00000170: 2029 f3bc c352 62be 8acf 2a3e 4d52 6cbe
00000180: a23c 893d eb4a 13bd 86e2 2a3d dc89 e93d
00000190: 2d63 e5bc e072 fa3d d525 643e 7fc5 413e
000001a0: 0767 7c3e 3b9e 033e 3e23 55bd 6e92 62bd
000001b0: 9c7e a93d be7b cb3d c965 f83d 8dc5 d3bd
000001c0: f579 323e fa3c 283e 669e 4cbe b886 63bc
000001d0: 9fe9 46be 7381 133e 7c5a 2cbe e0ea 02be
000001e0: 249d 69bd 2263 ab3d 295f fe3d c04e e8bd
000001f0: 4933 533c 73bf f63c a7e6 c83c f0d9 8ebd

bn1.weight f4 [128]
0.8658497 0.9515673 0.96982974 0.8548284 0.94534177 0.9497198 0.94548285 0.9128373
0.9263116 0.93270844 0.9697539 0.9714984 0.8650378 0.9573565 1.0524379 0.9470442
0.9639779 1.0461621 0.9742749 1.0884092 1.132659 1.0404849 1.0197353 1.0188609
0.896806 1.0057813 0.9784692 0.92649305 1.0204309 1.0310833 1.0654734 1.0661227
0.9500077 1.0367396 0.94950384 1.0021105 0.97368157 0.99386287 0.971983 1.0031451
1.1386311 0.96219176 0.84714085 0.87676907 0.97854996 1.017428 1.0067475 1.0216119
0.9450321 0.9607899 0.8710046 0.92322457 1.0455319 0.8941667 0.8843634 1.1027416
1.0624307 0.9428462 0.9318981 1.006147 0.9220848 0.96157956 1.0706387 0.97079587
0.9746675 0.92493343 0.9544972 0.9648026 1.034073 0.9942818 0.97196925 0.99720347
0.92590415 0.9888417 0.9460122 0.92738694 1.0033427 0.995209 0.83959556 0.9252601
1.0355666 1.0179753 1.0186437 1.0075403 1.0207574 0.9839881 0.95648307 1.030422
0.9581601 0.99548465 0.8743832 0.8774573 0.96366954 0.99150205 0.903033 1.0217199
0.9487294 0.86865544 1.1522282 1.0030657 0.96685314 1.0080156 1.077869 1.0949091
0.97610664 0.9577582 1.04216 1.0645496 1.0457278 1.0048095 0.9412293 1.0383826
1.0169032 0.9628024 0.8511945 0.9393617 1.1273074 0.9524626 0.9633947 1.0381564
0.9321114 1.0155799 1.0093118 0.98456615 1.0284541 1.0123768 0.9476114 0.93452007
00000000: 53a8 5d3f ea99 733f c346 783f 09d6 5a3f
00000010: eb01 723f d620 733f 2a0b 723f b5af 693f
00000020: c222 6d3f fbc5 6e3f cb41 783f 1fb4 783f
00000030: 1e73 5d3f 5115 753f 49b6 863f 7d71 723f
00000040: 41c7 763f a4e8 853f 146a 793f fe50 8b3f
00000050: f8fa 903f 9c2e 853f b086 823f 096a 823f
00000060: 1495 653f 71bd 803f f57c 7a3f a62e 6d3f
00000070: 7b9d 823f 8afa 833f 6f61 883f b576 883f
00000080: b433 733f e2b3 843f af12 733f 2845 803f
00000090: 3243 793f cc6d 7e3f e1d3 783f 0f67 803f
000000a0: aabe 913f 3352 763f 39de 583f f073 603f
000000b0: 4082 7a3f 153b 823f 1add 803f 2ec4 823f
000000c0: a0ed 713f 54f6 753f 28fa 5e3f 7258 6c3f
000000d0: fdd3 853f 1ce8 643f a465 623f a326 8d3f
000000e0: bbfd 873f 5e5e 713f e090 6e3f 6dc9 803f
000000f0: c00d 6c3f 142a 763f b00a 893f 1486 783f
00000100: cf83 793f 70c8 6c3f ee59 743f 4efd 763f
00000110: 815c 843f 4189 7e3f fad2 783f ba48 7f3f
00000120: 0e08 6d3f bb24 7d3f db2d 723f 3b69 6d3f
00000130: 896d 803f 04c6 7e3f bcef 563f d9dd 6c3f
00000140: 728d 843f 044d 823f eb62 823f 15f7 803f
00000150: 2ea8 823f a5e6 7b3f 13dc 743f dee4 833f
00000160: fb49 753f 15d8 7e3f 94d7 5f3f 0ba1 603f
00000170: 0cb3 763f 14d3 7d3f 2c2d 673f b8c7 823f
00000180: eedf 723f 3460 5e3f 377c 933f 7564 803f
00000190: b083 773f a806 813f 9df7 893f fb25 8c3f
000001a0: 20e2 793f a42f 753f 8065 853f 2943 883f
000001b0: 69da 853f 999d 803f 67f4 703f b9e9 843f
000001c0: e229 823f 387a 763f e2e7 593f 027a 703f
000001d0: 9c4b 903f 97d4 733f 09a1 763f 4fe2 843f
000001e0: da9e 6e3f 86fe 813f 2131 813f 870c 7c3f
000001f0: 62a4 833f 9095 813f a996 723f b53c 6f3f

bn1.bias f4 [128]
-0.064482115 -0.1160316 0.087444514 -0.10595042 -0.008477075 -0.011377383 -0.08119369 -0.09220747
-0.07999313 -0.018765066 -0.05586769 -0.011206473 -0.09848211 -0.035861637 -0.1138516 -0.19394656
-0.035692915 -0.099294126 0.08086476 0.07705142 0.059737254 -0.0065518655 0.08307016 0.07312464
-0.04385837 -0.052601706 -0.040110856 -0.05462895 0.01581282 0.20084204 -0.0035143038 -0.003056115
0.019024173 -0.10737107 -0.123891145 0.113266826 0.056590717 -0.061908405 -0.033883993 0.16214772
0.3844495 -0.011100884 -0.07160253 -0.09084694 0.085552536 0.053037815 0.030447394 0.038332403
-0.12524171 -0.038399078 0.050868876 -0.053956635 0.05074201 -0.14162993 -0.03793022 0.13126408
-0.045529827 -0.10174871 -0.0060183783 0.09107836 0.08832668 0.0370746 0.06109141 0.06466543
-0.14030622 -0.12357774 -0.08002746 0.07033552 -0.021612974 -0.1032324 0.09708773 -0.08916479
-0.013904754 -0.07114855 0.03863828 0.0026479468 -0.07492202 0.246713 -0.12567204 0.033344246
0.1163367 0.11218813 -0.050494127 -0.14256065 -0.037353303 0.0129314205 0.11833996 -0.060823645
0.14613141 -0.0044076773 -0.11091167 -0.03228025 -0.0942287 0.030546641 -0.10512911 0.056733616
-0.045382734 -0.08867232 0.87947965 -0.13536529 -0.09488321 -0.015940342 -0.12322175 -0.064262174
0.07323202 -0.011996794 0.12061769 0.19542734 -0.0060653035 -0.073249936 0.03250493 0.19532603
0.109505475 0.009368686 0.087968655 -0.10728874 0.12663896 0.024306182 0.21461652 0.018004088
0.065257885 0.21325368 0.081062354 -0.12073353 -0.05401149 -0.0073310733 0.0042462787 0.1278409
00000000: 330f 84bd faa1 edbd 1c16 b33d 89fc d8bd
00000010: 6ee3 0abc 3468 3abc e148 a6bd 45d7 bcbd
00000020: 70d3 a3bd 32b9 99bc 85d5 64bd 5b9b 37bc
00000030: fdb0 c9bd a7e3 12bd 072b e9bd ed99 46be
00000040: bc32 12bd b85a cbbd 6c9c a53d 23cd 9d3d
00000050: 0daf 743d 08b1 d6bb b020 aa3d 5fc2 953d
00000060: d6a4 33bd e374 57bd 484b 24bd 9bc2 5fbd
00000070: e389 813c 89a9 4d3e 3c50 66bb 1a49 48bb
00000080: 95d8 9b3c 5de5 dbbd a4ba fdbd 70f8 e73d
00000090: abcb 673d ab93 7dbd f1c9 0abd 0d0a 263e
000000a0: 91d6 c43e 7be0 35bc 59a4 92bd f60d babd
000000b0: 2b36 af3d 2e3e 593d d06c f93c 7002 1d3d
000000c0: 5d3f 00be 5a48 1dbd e25b 503d a201 5dbd
000000d0: dbd6 4f3d 7007 11be b85c 1bbd 176a 063e
000000e0: 7c7d 3abd a161 d0bd d135 c5bb 4b87 ba3d
000000f0: 9ee4 b43d 89db 173d fd3a 7a3d 4f6f 843d
00000100: 6fac 0fbe 5316 fdbd 70e5 a3bd 120c 903d
00000110: b10d b1bc 826b d3bd efd5 c63d 089c b6bd
00000120: c4d0 63bc 55b6 91bd 2c43 1e3d 2d89 2d3b
00000130: b770 99bd 55a2 7c3e 2cb0 00be fa93 083d
00000140: f041 ee3d e4c2 e53d eed2 4ebd 6bfb 11be
00000150: c7ff 18bd 4fde 533c 395c f23d 3722 79bd
00000160: 79a3 153e 476e 90bb a825 e3bd 4c38 04bd
00000170: fafa c0bd f33c fa3c ee4d d7bd 8261 683d
00000180: 3fe3 39bd d599 b5bd 9425 613f 339d 0abe
00000190: 2152 c2bd 5295 82bc af5b fcbd e39b 83bd
000001a0: abfa 953d 338e 44bc 6806 f73d 1b1e 483e
000001b0: 74bf c6bb 1004 96bd e423 053d 8c03 483e
000001c0: 6844 e03d 1e7f 193c e928 b43d 33ba dbbd
000001d0: a5ad 013e c21d c73c 6fc4 5b3e 4f7d 933c
000001e0: eda5 853d 2c5f 5a3e 0504 a63d 2443 f7bd
000001f0: 273b 5dbd 8039 f0bb 5e24 8b3b bae8 023e

bn1.running_mean f4 [128]
-0.061834596 -0.2185156 -0.22935194 0.22958353 -0.029455096 -0.11418763 -0.13012771 0.24605021
-0.124603525 -0.1497768 0.056593474 0.15762326 0.09598587 0.10360597 -0.09359345 0.0028316174
-0.049049824 -0.22553873 -0.08594794 0.23477891 -0.19471079 0.08801029 0.066778876 0.18580735
0.18930675 0.11264603 0.0832496 -0.15677425 0.0053625535 0.22718495 -0.1521551 0.20576788
-0.08872678 -0.2015744 -0.22927874 -0.07019089 -0.13811833 -0.21425529 0.16361229 -0.033039175
-0.015390909 0.01433983 0.16484141 -0.22689506 0.19728407 0.14710371 -0.01600284 -0.04464846
-0.124712184 -0.14245115 0.080106325 0.044211853 0.08480148 0.11180281 0.00233786 -0.11774012
0.060881965 0.1750155 -0.061151713 -0.117205255 0.20347135 -0.0064571965 0.18738376 -0.1660822
-0.010901737 0.14362822 0.06628587 0.10188842 -0.200011 0.113449484 -0.14929955 -0.1799223
0.13873407 -0.16998783 0.018027771 0.13784075 0.117177024 -0.053865816 -0.103453696 -0.15150192
-0.22827427 -0.17995843 -0.073336616 0.06334487 -0.058797304 0.23598605 -0.09386569 0.036617406
-0.18071216 -0.07269094 0.060413823 -0.118033364 0.018077098 -0.22001353 0.20196602 -0.22909343
0.063835695 -0.06650821 0.052730825 0.10964147 -0.012222564 0.095727496 0.2255991 0.19765589
0.2451913 0.10053575 -0.07302347 -0.047986433 0.096661925 0.110092014 0.14472587 -0.09176367
0.18310994 0.19051458 -0.17329848 0.025190543 -0.19692929 0.16445906 -0.16641398 -0.11894497
-0.047675245 0.10714924 0.10290809 -0.105549134 0.013138059 0.051593155 0.0034763273 -0.07158423
00000000: 4646 7dbd 8ec2 5fbe 3cdb 6abe f217 6b3e
00000010: d04b f1bc 34db e9bd 3340 05be 96f4 7b3e
00000020: 2230 ffbd 175f 19be 8fce 673d fe67 213e
00000030: 3d94 c43d 5e2f d43d ecad bfbd a892 393b
00000040: 78e8 48bd a0f3 66be 7905 b0bd e269 703e
00000050: 4462 47be bd3e b43d 5dc3 883d 4844 3e3e
00000060: a1d9 413e f6b2 e63d c47e aa3d 6e89 20be
00000070: 5cb8 af3b 2ca3 683e 8cce 1bbe d1b4 523e
00000080: 63b6 b5bd 8569 4ebe 0cc8 6abe 3ec0 8fbd
00000090: e46e 0dbe bd65 5bbe fb89 273e 1654 07bd
000000a0: 272a 7cbc 9bf1 6a3c 30cc 283e 2e57 68be
000000b0: d604 4a3e 5ba2 163e 6318 83bc 4ee1 36bd
000000c0: 1a69 ffbd b7de 11be c90e a43d 7d17 353d
000000d0: 66ac ad3d dff8 e43d c836 193b bb21 f1bd
000000e0: 5e5f 793d 4337 333e 387a 7abd 4f09 f0bd
000000f0: cb5a 503e e496 d3bb 87e1 3f3e 7411 2abe
00000100: 339d 32bc 4713 133e e3c0 873d e0aa d03d
00000110: afcf 4cbe 3458 e83d fbe1 18be 8d3d 38be
00000120: 4e10 0e3e 4a11 2ebe faae 933c 2026 0d3e
00000130: 82fa ef3d 67a2 5cbd 88df d3bd 5223 1bbe
00000140: bbc0 69be 0647 38be 8231 96bd f5ba 813d
00000150: 71d5 70bd 54a6 713e a83c c0bd 22fc 153d
00000160: 9c0c 39be fdde 94bd 7c74 773d 7abb f1bd
00000170: 6c16 943c 3a4b 61be 2ed0 4e3e 7897 6abe
00000180: 4abc 823d 7535 88bd 47fc 573d b58b e03d
00000190: 2641 48bc c70c c43d 7303 673e 4e66 4a3e
000001a0: 6e13 7b3e b0e5 cd3d 548d 95bd 6c8d 44bd
000001b0: b0f6 c53d ec77 e13d 0533 143e 97ee bbbd
000001c0: 2c81 3b3e 4116 433e 2875 31be 665c ce3c
000001d0: d5a7 49be f567 283e 6d68 2abe 6c99 f3bd
000001e0: 1e47 43bd 1071 db3d 7ac1 d23d 252a d8bd
000001f0: 0341 573c 5853 533d 18d3 633b c19a 92bd

bn1.running_var f4 [128]
0.44340825 0.1801914 0.1284072 0.40007478 0.28653705 0.25601897 0.2949264 0.18190922
0.954689 1.5323454 0.19821918 0.69725126 0.5650689 0.16119327 1.2355752 0.42553166
0.38721037 0.1551349 0.4629116 1.7209415 0.35665008 0.36600658 0.66157717 0.24351251
1.0176433 0.1997456 0.117355876 0.3779436 0.42445263 0.10927053 0.43600118 0.17779815
0.18389559 0.5250214 0.2980182 0.15093395 0.34682176 0.16583385 0.6007078 0.13005678
0.10662876 0.44050938 0.42768943 0.60878813 1.1825078 0.43341923 0.20691207 0.5237913
0.54541314 0.47121292 0.12241486 0.4658987 0.693778 0.53656334 0.33058685 0.16476634
0.68806595 0.14625497 1.1699466 0.5270368 0.46363097 0.35206857 0.22639975 0.30778673
0.62571925 0.18471038 0.4582812 0.13887039 0.7586877 0.21347512 0.54238874 1.047322
0.45475316 0.62300855 0.46900025 0.43960747 0.08327091 1.4956079 0.52960825 0.21749459
0.08985276 0.1704422 0.631963 0.32336184 0.16314492 0.13767862 0.7358073 0.7157908
0.09025385 0.17058155 0.18513426 0.59057415 0.31756836 0.11656381 0.73407054 0.23482883
0.34826127 0.470737 4.03032 0.17856853 0.6425257 0.22893912 0.64541 0.40842673
0.13993463 0.9213081 0.1968193 1.7581929 0.68995893 0.29993114 0.16904321 0.13167255
0.12399366 0.86591285 0.34726426 0.72577393 1.1093057 1.3085538 0.52408475 0.21451145
0.20580629 1.4816371 0.0818685 0.25434193 0.1466221 0.37871325 0.54267037 0.18877548
00000000: 6806 e33e 1884 383e 2d7d 033e 9ad6 cc3e
00000010: fcb4 923e eb14 833e 9800 973e 6946 3a3e
00000020: 8066 743f e523 c43f f8f9 4a3e 0f7f 323f
00000030: 5ba8 103f d90f 253e 5427 9e3f 49df d93e
00000040: 7040 c63e afdb 1e3e c002 ed3e d047 dc3f
00000050: d79a b63e 3765 bb3e 1f5d 293f 585b 793e
00000060: 2342 823f 1c8a 4c3e 4758 f03d d381 c13e
00000070: db51 d93e 3ac9 df3d 8c3b df3e b810 363e
00000080: 204f 3c3e cd67 063f d795 983e 6e8e 1a3e
00000090: 9f92 b13e 59d0 293e fdc7 193f 9b2d 053e
000000a0: 2e60 da3d 728a e13e 1cfa da3e 8ad9 1b3f
000000b0: 6a5c 973f 20e9 dd3e c2e0 533e 3017 063f
000000c0: 32a0 0b3f d242 f13e a4b4 fa3d 468a ee3e
000000d0: 6f9b 313f 375c 093f ae42 a93e 82b8 283e
000000e0: 1725 303f ddc3 153e cfc0 953f e2eb 063f
000000f0: 0a61 ed3e 5542 b43e 56d5 673e 3996 9d3e
00000100: 232f 203f b824 3d3e d5a3 ea3e 0a34 0e3e
00000110: 5b39 423f 3999 5a3e fdd9 0a3f a60e 863f
00000120: 68d5 e83e 7d7d 1f3f cd20 f03e 3b14 e13e
00000130: f089 aa3d 1470 bf3f 6894 073f e7b6 5e3e
00000140: b904 b83d 6688 2e3e 54c8 213f af8f a53e
00000150: 760f 273e a0fb 0c3e de5d 3c3f 113e 373f
00000160: 03d7 b83d eeac 2e3e d693 3d3e de2f 173f
00000170: 5298 a23e 02b9 ee3d 0cec 3b3f f876 703e
00000180: 4d4f b23e 7104 f13e 62f8 8040 abda 363e
00000190: 907c 243f 046f 6a3e 9739 253f 4f1d d13e
000001a0: 064b 0f3e d9da 6b3f 008b 493e 770c e13f
000001b0: 26a1 303f 9390 993e aa19 2d3e 2bd5 063e
000001c0: 63f0 fd3d 77ac 5d3f 9fcc b13e 52cc 393f
000001d0: bbfd 8d3f b17e a73f 6b2a 063f e4a8 5b3e
000001e0: e2be 523e 49a6 bd3f acaa a73d 1b39 823e
000001f0: 1b24 163e b4e6 c13e 72ec 0a3f 5c4e 413e

fc2.weight f4 [64, 128]
0.07485918 0.04416411 0.0070457524 0.0717498 -0.0005297672 -0.06927906 0.13607724 -0.02759779
0.005306933 -0.027445273 -0.050343834 -0.088639066 -0.044355333 0.05851897 -0.052366666 -0.093955964
0.02516746 -0.107702665 -0.08407623 0.16709045 -0.07975249 -0.12994562 0.20656998 -0.10341612
-0.022216072 0.009504519 0.03517939 0.0033433673 0.080453195 0.04597945 0.16459782 -0.023690164
0.013912046 -0.0024862816 -0.044438574 -0.02770835 0.017844321 -0.14264981 0.018121045 0.044366185
0.04064275 0.0070232702 0.020211587 -0.04079729 -0.0021891776 -0.18528965 0.03603852 -0.07201561
0.11205759 -0.061815485 0.03267955 0.108353265 0.044238385 0.07500463 0.10241291 0.030072762
-0.042588066 -0.029192403 0.049779046 -0.08825824 0.15818685 0.0118233375 -0.07188146 0.10868385
-0.1914862 0.00060215034 0.057935253 -0.06424759 0.025037106 -0.007072616 -0.10559377 0.05404192
0.054212466 -0.07794209 -0.06303971 0.007997722 0.018337741 0.0075320313 0.0238166 0.07361218
0.020041114 0.015308615 0.06462196 -0.03439998 0.14719398 -0.11939809 0.030760508 -0.024884064
0.011566496 -0.1514856 -0.007003437 0.08614267 -0.0036639792 0.0120855095 -0.014305861 0.058276165
0.08575599 -0.07474379 -0.12493683 -0.06079899 0.0049061608 -0.15610926 0.0485842 0.14354904
0.012174954 -0.08231712 0.08624883 -0.16001347 0.010777517 -0.012352671 -0.052440576 -0.030405236
-0.052865624 0.10520719 0.081586905 -0.015288729 -0.037342776 0.0991042 0.082717665 0.021547465
0.09702249 -0.015963297 -0.124454364 -0.0019809061 0.045532305 -0.0069363997 -0.06252992 -0.00040997303
-0.07909219 -0.069870375 -0.02562082 0.06507562 -0.038955115 -0.07117266 -0.059925016 0.018359985
-0.047877476 0.0363749 -0.05033832 -0.19791736 -0.009663202 -0.011173938 -0.035328045 -0.043295488
-0.062157825 0.077408016 -0.059673045 0.0710142 -0.09861016 0.0031443818 -0.12474905 -0.10429802
-0.0029273785 -0.18943691 0.074288145 0.043410905 -0.0037869385 0.15897678 -0.016473787 -0.066395395
0.026172519 0.0058496287 -0.07171254 0.048454925 -0.019063976 -0.045538776 -0.040041924 0.08930403
0.06519424 0.0008900786 0.019526651 0.014848793 -0.039640542 0.05410156 0.046011742 0.022604292
-0.082730375 -0.03447926 -0.0021137118 0.074717216 -0.05710771 -0.08692604 -0.0945706 0.050034836
-0.07517374 0.030382073 -0.031425834 -0.019541394 -0.06117138 0.1422637 -0.018701958 0.09252605
0.107226916 0.04490572 0.11531807 0.06264649 -0.06762735 -0.08513813 -0.03496788 -0.084815055
-0.019801637 -0.12011169 0.0347285 -0.038752772 -0.04716288 -0.04287971 0.04048676 -0.039430633
-0.031679038 -0.00017981994 -0.15370783 -0.065487176 0.045613512 0.032451488 0.02926309 -0.12756738
-2.090566e-05 0.034089815 -0.08660982 -0.011003491 -0.08963613 -0.027959608 -0.017030705 -0.009708021
0.11572264 -0.0065544425 0.17193396 -0.0036679492 0.12151751 -0.13088809 -0.10982689 -0.058026116
-0.07437494 0.016666317 0.049453557 0.053351764 -0.014914298 -0.06662675 0.023198886 -0.07684833
-0.047227237 0.027365599 0.080839045 0.090293944 0.06517246 0.030088758 -0.05728936 -0.035421323
-0.103684075 -0.023704927 -0.12772393 -0.0068217083 -0.0054582637 -0.09361457 -0.082223736 -0.0037585183
00000000: c54f 993d 6de5 343d 0ee0 e63b 8ff1 923d
00000010: 13e0 0aba 2ee2 8dbd d557 0b3e c314 e2bc
00000020: c8e5 ad3b e9d4 e0bc 5635 4ebd 6688 b5bd
00000030: f0ad 35bd 96b1 6f3d 6e7e 56bd fc6b c0bd
00000040: fd2b ce3c 3793 dcbd 2930 acbd c219 2b3e
00000050: 4655 a3bd 7710 05be 1587 533e d5cb d3bd
00000060: 7bfe b5bc d8b8 1b3c 4418 103d 651c 5b3b
00000070: a5c4 a43d f354 3c3d 558c 283e e011 c2bc
00000080: 5aef 633c e2f0 22bb 3905 36bd 9ffc e2bc
00000090: 412e 923c cb12 12be 9672 943c 51b9 353d
000000a0: 0379 263d 7623 e63b c592 a53c 0f1b 27bd
000000b0: 4e78 0fbb 92bc 3dbe 219d 133d ec7c 93bd
000000c0: 737e e53d 3c32 7dbd feda 053d 51e8 dd3d
000000d0: 4f33 353d 079c 993d dcbd d13d 275b f63c
000000e0: d370 2ebd e824 efbc 1de5 4b3d bcc0 b4bd
000000f0: bcfb 213e acb6 413c 9636 93bd a395 de3d
00000100: f514 44be a0d9 1d3a 844d 6d3d 3e94 83bd
00000110: 9e1a cd3c 67c1 e7bb 8c41 d8bd 0f5b 5d3d
00000120: e40d 5e3d 1aa0 9fbd f71a 81bd e108 033c
00000130: 0839 963c 42cf f63b 081b c33c fcc1 963d
00000140: 432d a43c fcd0 7a3c 8558 843d fee6 0cbd
00000150: 05ba 163e fc86 f4bd 76fd fb3c aad9 cbbc
00000160: 6781 3d3c 0b1f 1bbe 167d e5bb 916b b03d
00000170: 5f1f 70bb 4d02 463c 2163 6abc fdb2 6e3d
00000180: d6a0 af3d 4613 99bd e1de ffbd 5d08 79bd
00000190: dcc3 a03b 1bdb 1fbe 3a00 473d 85fe 123e
000001a0: 7579 473c e195 a8bd 3aa3 b03d 92da 23be
000001b0: 2f94 303c db62 4abc eecb 56bd 6714 f9bc
000001c0: a089 58bd de76 d73d 0917 a73d 947d 7abc
000001d0: bdf4 18bd 25f7 ca3d e167 a93d 4f84 b03c
000001e0: bab3 c63d 76c5 82bc eee1 febd 17d2 01bb
000001f0: 1580 3a3d bd4a e3bb b00f 80bd a6f1 d6b9
00000200: 16fb a1bd 3318 8fbd c1e2 d1bc 5e46 853d
00000210: 668f 1fbd f9c2 91bd ef73 75bd ae67 963c
00000220: 2c1b 44bd d9fd 143d 8e2f 4ebd d9aa 4abe
00000230: 6852 1ebc e512 37bc 24b4 10bd 9c56 31bd
00000240: 3499 7ebd 1888 9e3d b96b 74bd e56f 913d
00000250: 20f4 c9bd f911 4e3b 6e7c ffbd 339a d5bd
00000260: 43d9 3fbb c0fb 41be 6224 983d a2cf 313d
00000270: 492e 78bb cfca 223e 09f4 86bc 4ffa 87bd
00000280: c067 d63c 3eae bf3b 06de 92bd ac78 463d
00000290: 0e2c 9cbc de86 3abd 0003 24bd 08e5 b63d
000002a0: 8f84 853d 2a54 693a 5bf6 9f3c 5a48 733c
000002b0: 1f5e 22bd 9999 5d3d cf76 3c3d a32c b93c
000002c0: 8b6e a9bd 203a 0dbd 3386 0abb 5705 993d
000002d0: c6e9 69bd 4806 b2bd 3bae c1bd 54f1 4c3d
000002e0: b1f4 99bd d3e3 f83c 60b8 00bd 4615 a0bc
000002f0: d78e 7abd 93ad 113e d934 99bc 4c7e bd3d
00000300: c999 db3d 0fef 373d e12b ec3d ce4c 803d
00000310: 3580 8abd e65c aebd 7b3a 0fbd 84b3 adbd
00000320: 0b37 a2bc 1efd f5bd 793f 0e3d 3abb 1ebd
00000330: dd2d 41bd a3a2 2fbd 72d5 253d 0482 21bd
00000340: e1c1 01bd 0c8e 3cb9 9665 1dbe 241e 86bd
00000350: 3cd5 3a3d daeb 043d 26b9 ef3c 06a1 02be
00000360: 905e afb7 c3a1 0b3d 7d60 b1bd fc47 34bc
00000370: 2693 b7bd 8c0b e5bc fa83 8bbc 640e 1fbc
00000380: feff ec3d a6c6 d6bb 750f 303e fa61 70bb
00000390: 2cde f83d 8707 06be ecec e0bd cbac 6dbd
000003a0: e351 98bd cd87 883c d08f 4a3d 6187 5a3d
000003b0: 1a5b 74bc 9b73 88bd 970b be3c a862 9dbd
000003c0: 5971 41bd d22d e03c f18e a53d 08ec b83d
000003d0: 2479 853d b37c f63c 3fa8 6abd f315 11bd
000003e0: 5158 d4bd d630 c2bc 10ca 02be a388 dfbb
000003f0: 3cdb b2bb ffb8 bfbd eb64 a8bd 7951 76bb

fc2.bias f4 [64]
0.06677761 -0.0012417928 -0.040329076 0.08012435 -0.051478192 -0.021641115 -0.034083046 -0.051699787
-0.036302187 0.009648147 -0.08118724 0.0013081285 0.035038743 -0.0035420817 0.05490424 -0.073000446
0.014618846 0.056654412 0.07921814 0.03804627 -0.034041006 -0.035151165 -0.0365924 -0.06283735
-0.03517343 -0.028485088 -0.06261778 -0.032461092 0.03357911 -0.01770448 -0.020299247 0.038760807
-0.07249817 0.08163669 -0.04804616 0.039646264 0.017038843 -0.06751563 0.0348285 0.04239829
0.06742714 -0.06562965 0.084764875 0.0013148477 -0.011288402 0.03382028 0.019284507 0.005441603
0.06482862 0.048508056 -0.013472329 0.03771495 -0.012608144 -0.06415457 -0.083536096 0.05114444
0.054125547 0.012102921 0.028429471 -0.029840896 -0.034534037 0.021475598 -0.052033715 -0.044274464
00000000: b3c2 883d a7c3 a2ba 1a30 25bd 3c18 a43d
00000010: ccda 52bd b548 b1bc aa9a 0bbd 28c3 53bd
00000020: 9ab1 14bd 4313 1e3c 7f45 a6bd 8275 ab3a
00000030: c984 0f3d 4522 68bb 45e3 603d 4281 95bd
00000040: e283 6f3c 750e 683d 1f3d a23d 68d6 1b3d
00000050: 956e 0bbd abfa 0fbd eae1 15bd deb0 80bd
00000060: 0412 10bd 8f59 e9bc c03d 80bd ecf5 04bd
00000070: 408a 093d fc08 91bc 9b4a a6bc a7c3 1e3d
00000080: ec79 94bd 2331 a73d 0dcc 44bd 1f64 223d
00000090: 0b95 8b3c a245 8abd 54a8 0e3d d4a9 2d3d
000000a0: 3e17 8a3d d768 86bd 3599 ad3d f856 ac3a
000000b0: fdf2 38bc 2287 0a3d 8bfa 9d3c 794f b23b
000000c0: dec4 843d 62b0 463d 0bbb 5cbc fe7a 1a3d
000000d0: 6492 4ebc 7963 83bd f914 abbd d57c 513d
000000e0: c0b2 5d3d 544b 463c ece4 e83c e574 f4bc
000000f0: 9073 0dbd 98ed af3c 4e21 55bd 2459 35bd

bn2.weight f4 [64]
0.9629607 0.95892495 1.0141916 0.9984398 0.98866934 1.0471302 0.96840143 1.0266881
0.9927054 0.9857165 0.98102885 1.0712448 1.0066181 1.1021858 0.9728096 0.9752628
0.993052 1.0445745 1.0681952 0.9325103 1.0200754 1.0040338 1.1530229 0.9585332
0.9640941 1.0339944 1.0301132 0.9804007 1.0251544 1.0059493 0.99087256 1.031767
1.0281285 0.9262276 0.95948595 0.9697777 1.1026853 1.0000159 1.0277096 1.0798577
0.8363817 0.98569363 0.9741023 0.971678 0.9204273 1.0391324 0.95204544 1.0356468
0.8917366 0.98495406 1.0280344 1.0376527 1.0388997 0.9401099 0.93088126 1.0186309
1.0890248 0.98937327 0.99248946 0.9165759 0.922471 1.0088228 0.92425656 0.9946748
00000000: 9884 763f 1b7c 753f 08d1 813f c099 7f3f
00000010: 6f19 7d3f 5d08 863f 28e9 773f 846a 833f
00000020: f121 7e3f eb57 7c3f b524 7b3f 8d1e 893f
00000030: ddd8 803f 6d14 8d3f 0d0a 793f d3aa 793f
00000040: a838 7e3f 9eb4 853f 9fba 883f ffb8 6e3f
00000050: d591 823f 2e84 803f 4196 933f 6f62 753f
00000060: dfce 763f ee59 843f c0da 833f 8afb 7a3f
00000070: 4238 833f f2c2 803f d3a9 7d3f f110 843f
00000080: b799 833f 411d 6d3f dfa0 753f 5a43 783f
00000090: cb24 8d3f 8500 803f fd8b 833f c738 8a3f
000000a0: 1c1d 563f 6b56 7c3f c55e 793f e4bf 783f
000000b0: 20a1 6b3f 4a02 853f 40b9 733f 1390 843f
000000c0: da48 643f f325 7c3f a296 833f ced1 843f
000000d0: aafa 843f 0bab 703f 3c4e 6e3f 7f62 823f
000000e0: 2a65 8b3f 9147 7d3f ca13 7e3f b8a4 6a3f
000000f0: 0f27 6c3f 1b21 813f 149c 6c3f 02a3 7e3f

bn2.bias f4 [64]
-0.045381125 -0.029317034 -0.09355183 0.02035054 -0.041257583 -0.0044481005 -0.02004528 -0.18620594
-0.1037002 -0.12249553 -0.06540265 -0.08512667 -0.059082415 -0.0671818 -0.10903633 -0.031775743
0.00017204453 0.032885496 -0.0015020084 -0.1581661 0.014962041 -0.026071448 0.093503505 -0.05121849
-0.008249067 0.024399985 -0.071261846 -0.034219183 0.07232038 0.16506502 -0.0907303 -0.075546406
0.029413398 -0.17320246 -0.028448887 0.007249684 -0.026532087 0.06749882 -0.05059531 -0.14009017
-0.13067481 -0.007869953 -0.032865804 -0.036014624 -0.21056631 -0.07996729 -0.070128635 -0.018478509
-0.040079415 -0.115183674 -0.15702747 0.004406027 -0.012260704 0.006779603 -0.18390846 0.18113212
-0.047071934 -0.034113623 0.020306803 -0.2382783 0.01291311 -0.042924877 -0.104384616 0.053639952
00000000: 8fe1 39bd 472a f0bc 1a98 bfbd 2db6 a63c
00000010: b6fd 28bd 5fc1 91bb 0036 a4bc c5ac 3ebe
00000020: c560 d4bd f0de fabd d3f1 85bd e456 aebd
00000030: 6700 72bd 9d96 89bd 704e dfbd 4827 02bd
00000040: da66 3439 f1b2 063d 0adf c4ba 4bf6 21be
00000050: 5923 753c ca93 d5bc c47e bf3d 7bca 51bd
00000060: 1827 07bc 7ae2 c73c bbf1 91bd 6a29 0cbd
00000070: b51c 943d ce06 293e cfd0 b9bd 13b8 9abd
00000080: 5ef4 f03c fc5b 31be a40d e9bc c28e ed3b
00000090: d259 d9bc d23c 8a3d 073d 4fbd cc73 0fbe
000000a0: 9ecf 05be faf0 00bc 4b9e 06bd 1284 13bd
000000b0: b29e 57be e4c5 a3bd 9a9f 8fbd 3e60 97bc
000000c0: 502a 24bd 6be5 ebbd cfcb 20be 6f60 903b
000000d0: 1fe1 48bc 6f27 de3b 8052 3cbe b37a 393e
000000e0: 80ce 40bd baba 0bbd 745a a63c 3aff 73be
000000f0: 8291 533c ffd1 2fbd 9ac7 d5bd 91b5 5b3d

bn2.running_mean f4 [64]
-0.08518909 -0.5214951 -0.5492442 -0.7935393 -0.52359116 1.0819262 -0.7035072 -0.45703727
0.28378326 -0.8489356 -1.3119178 -0.35121417 0.09785909 -1.3090955 -0.69062114 -1.3265421
-0.3853353 0.60496575 -1.4447618 -0.03326549 -0.9665199 -0.25861728 -1.3798586 0.25010175
0.20757689 0.19568312 -0.6227312 -0.4064923 -1.1438738 0.20415513 -0.6429697 -0.72360075
-0.011410207 -0.4633687 -0.47068673 -0.692214 -0.56345874 0.67815435 -0.570934 -0.59604967
0.24317074 0.25697064 -0.96661174 -0.92378694 0.2300336 -0.7729454 -0.017487422 0.20373839
0.8395851 0.11808121 0.036423914 -0.811706 -1.2062188 -0.35052755 -1.4626489 -0.67869776
-0.35802165 -0.5174417 -0.7000243 -0.048027355 -0.22789767 -0.8324218 -0.058847837 -0.17828843
00000000: 9e77 aebd b480 05bf 459b 0cbf 6425 4bbf
00000010: 120a 06bf 8f7c 8a3f 0c19 34bf ca00 eabe
00000020: 0a4c 913e d853 59bf ecec a7bf 58d2 b3be
00000030: 596a c83d 7190 a7bf 8ccc 30bf 22cc a9bf
00000040: ab4a c5be 09df 1a3f f4ed b8bf 6541 08bd
00000050: d96d 77bf 7c69 84be 359f b0bf 560d 803e
00000060: 098f 543e 2861 483e 506b 1fbf c21f d0be
00000070: 756a 92bf 0b0e 513e aa99 24bf e63d 39bf
00000080: e0f1 3abc aa3e edbe dafd f0be f034 31bf
00000090: d53e 10bf 869b 2d3f bb28 12bf b696 18bf
000000a0: c001 793e a891 833e de73 77bf 4d7d 6cbf
000000b0: ee8d 6b3e c0df 45bf c841 8fbc cca0 503e
000000c0: 0def 563f 90d4 f13d 3e31 153d f7cb 4fbf
000000d0: 6165 9abf 5978 b3be 1438 bbbf 23bf 2dbf
000000e0: 9d4e b7be 0f77 04bf cb34 33bf 55b8 44bd
000000f0: 025e 69be 9819 55bf 6e0a 71bd 3e91 36be

bn2.running_var f4 [64]
0.5846104 0.47289404 0.5391683 0.6840768 0.49701676 0.80514693 1.2425207 0.8181053
0.47983825 0.6730076 1.1757805 0.6438517 0.76184523 0.77975327 0.45582384 0.5534074
0.6555989 0.7133282 1.0191814 0.41249532 0.35795033 0.9702052 0.86838335 0.5115435
0.4583819 0.63609844 0.7301203 0.5021736 0.94608295 0.3307414 0.64280844 0.7049825
0.46832713 0.8292912 0.42814925 0.6091236 0.49330306 0.44529796 0.52142406 0.44149613
0.37404254 0.86157346 0.7618428 0.75961804 0.57711244 0.37747252 0.46455154 0.50341594
0.8482269 0.62579215 0.48672682 0.43887424 0.4518349 0.54080313 0.86111295 0.55532414
0.5235144 0.45987356 0.684689 0.5657251 0.30509874 0.72372544 0.35149902 0.55160505
00000000: 07a9 153f 2b1f f23e ef06 0a3f a81f 2f3f
00000010: fb78 fe3e 1c1e 4e3f eb0a 9f3f 596f 513f
00000020: 5cad f53e 3a4a 2c3f fa7f 963f 77d3 243f
00000030: 4a08 433f e99d 473f be61 e93e 1bac 0d3f
00000040: 54d5 273f ad9c 363f 8974 823f 9632 d33e
00000050: 4445 b73e 5e5f 783f 5f4e 5e3f 84f4 023f
00000060: 08b1 ea3e 59d7 223f 2ae9 3a3f 738e 003f
00000070: 7e32 723f f056 a93e 188f 243f bc79 343f
00000080: 93c8 ef3e 6e4c 543f 6136 db3e 86ef 1b3f
00000090: 3892 fc3e 18fe e33e 0c7c 053f c80b e23e
000000a0: 8182 bf3e 1490 5c3f 2108 433f 5476 423f
000000b0: a4bd 133f 1444 c13e b3d9 ed3e dedf 003f
000000c0: 6625 593f ea33 203f 4234 f93e 20b4 e03e
000000d0: e756 e73e 1372 0a3f e671 5c3f b929 0e3f
000000e0: 0a05 063f 8c74 eb3e c747 2f3f 5cd3 103f
000000f0: e735 9c3e 1246 393f aef7 b33e fd35 0d3f

fc3.weight f4 [32, 64]
0.030384487 0.060219876 -0.032242108 0.0794576 -0.018961094 -0.006762322 0.0941826 -0.023074353
0.11857054 -0.20171924 0.13092078 0.12609047 0.09534439 -0.1294844 0.11158486 -0.17015183
0.0761015 -0.040415723 0.008661855 -0.12376306 -0.022186264 0.14770962 -0.11908675 0.03291521
-0.019856958 -0.0954033 -0.074801505 0.05340094 0.008277591 -0.20562705 0.036332358 0.09686233
0.003516181 0.0955544 0.11183464 -0.061710194 -0.006224476 0.105713494 -0.077832796 -0.10397196
0.060704265 -0.13807665 -0.020216528 -0.07440898 0.07562106 0.06987413 0.11866854 -0.06705923
-0.05691436 -0.03577714 0.06491047 0.0324154 0.026762083 -0.09575296 -0.09146243 -0.111002125
-0.03365502 -0.11760023 0.13799977 0.1452341 0.016398927 -0.0685006 0.026424613 0.07092883
-0.20964895 -0.09007765 0.07729428 -0.11325881 -0.002291896 0.0047718617 -0.042898357 -0.091730654
0.09915256 -0.0025325352 -0.004713287 -0.010804381 0.14396784 -0.07992745 -0.08123836 -0.079022385
-0.10670793 -0.0008269005 -0.048532225 0.029383052 0.15282454 0.066579804 -0.1941152 0.13380541
0.0892019 -0.062405962 -0.17867967 -0.097184084 -0.14180942 0.14123137 -0.184117 -0.07834899
-0.100562535 0.036737293 0.061690204 0.1688637 0.15902552 -0.02963921 -0.1357075 0.12662198
0.079141125 -0.03419952 -0.10368287 -0.02859607 -0.07011215 -0.045932196 0.036989227 -0.18410803
0.07679992 -0.11312216 0.1575784 -0.0610244 0.052893 0.020514188 -0.025322 0.0685133
-0.00351481 0.03772744 -0.036399696 0.0075595058 0.06582524 0.13797113 -0.06922392 -0.08286559
-0.009723645 0.005839959 -0.015311116 -0.058188364 0.08668024 0.21005595 0.14239438 0.06045425
0.015961634 -0.015705207 -0.015185149 -0.22444697 -0.0017695338 -0.23555872 0.059075862 0.02183953
0.025971133 -0.06462638 -0.16960904 0.07002774 -0.042983286 -0.09736707 -0.14878426 -0.08127976
0.05763005 -0.14691615 0.14508937 0.0350744 -0.03288347 0.0739675 -0.0016418067 0.016078154
-0.09408145 -0.07359086 -0.01712759 -0.09272388 -0.092326246 -0.116501726 0.1074297 -0.08884035
-0.019574903 -0.054748837 -0.0734247 -0.03315291 0.021174774 0.13318428 -0.06646562 0.06265602
0.05191251 -0.15661468 0.054914195 -0.100128315 -0.074639305 0.047540814 -0.10508045 -0.09198969
0.10877501 0.065612234 -0.08352515 -0.16900839 -0.07180717 0.10021461 -0.083262384 -0.08198131
-0.19287825 -0.055518445 -0.09926182 0.051254325 -0.04882371 -0.22840914 -0.10717485 -0.029991135
-0.21839103 0.03141653 -0.044924356 -0.016014505 -0.14625709 -0.031001696 0.08512161 0.12114942
0.10394567 0.07727932 0.123589665 0.09830312 -0.08676529 0.0002930958 0.19247833 0.049992282
0.008603658 0.027020155 0.008354815 -0.16599749 0.011677845 0.06567567 0.112380035 0.15789428
0.038533796 -0.063387565 0.090628326 -0.05076796 0.08192409 -0.009373154 -0.069452286 -0.025001522
-0.015760519 -0.09471304 -0.00208401 0.09543014 0.15880635 -0.23620754 -0.21064064 -0.052306935
-0.02361689 0.10658701 0.075991295 -0.026923962 0.07031063 0.09159267 0.13599963 0.009341913
0.08730105 0.07925897 0.09844378 0.0013349461 -0.19681303 0.035380393 0.075251065 -0.046623077
00000000: e3e8 f83c 1ea9 763d 4d10 04bd abba a23d
00000010: 4c54 9bbc 7896 ddbb cfe2 c03d 6d06 bdbc
00000020: 1cd5 f23d 7d8f 4ebe 1910 063e dc1d 013e
00000030: eb43 c33d 8f97 04be 9a86 e43d 483c 2ebe
00000040: 1adb 9b3d f58a 25bd 74ea 0d3c 7d77 fdbd
00000050: f8bf b5bc 3141 173e c1e3 f3bd 19d2 063d
00000060: 0fab a2bc ce62 c3bd 8831 99bd f2ba 5a3d
00000070: bc9e 073c e68f 52be 3dd1 143d c25f c63d
00000080: ba6f 663b 06b2 c33d 8f09 e53d d4c3 7cbd
00000090: b0f6 cbbb 5180 d83d cd66 9fbd 40ef d4bd
000000a0: 09a5 783d f763 0dbe 229d a5bc bc63 98bd
000000b0: 37df 9a3d 2b1a 8f3d 7e08 f33d 5956 89bd
000000c0: 081f 69bd 0d8b 12bd c8ef 843d 03c6 043d
000000d0: 283c db3c 211a c4bd a850 bbbd 1555 e3bd
000000e0: d9d9 09bd 64d8 f0bd d04f 0d3e 3fb8 143e
000000f0: 0b57 863c 0b4a 8cbd 6e78 d83c 2243 913d
00000100: 37ae 56be a27a b8bd 774c 9e3d 3cf4 e7bd
00000110: a233 16bb 475d 9c3b 30b6 2fbd 48dd bbbd
00000120: 7f10 cb3d e4f8 25bb eb71 9abb dc04 31bc
00000130: 4e6c 133e 01b1 a3bd 4c60 a6bd 7dd6 a1bd
00000140: b089 dabd 5ac4 58ba bac9 46bd bab4 f03c
00000150: 097e 1c3e fe5a 883d 23c6 46be 4904 093e
00000160: 7caf b63d 659d 7fbd cef7 36be 7308 c7bd
00000170: 7d36 11be f59e 103e 2b89 3cbe 6f75 a0bd
00000180: bbf3 cdbd d879 163d deae 7c3d 9bea 2c3e
00000190: 96d7 223e eecd f2bc e8f6 0abe 31a9 013e
000001a0: be14 a23d cc14 0cbd af57 d4bd 4e42 eabc
000001b0: f596 8fbd 6623 3cbd 0482 173d d186 3cbe
000001c0: 4749 9d3d 97ac e7bd 3b5c 213e b9f4 79bd
000001d0: 55a6 583d 5f0d a83c 1570 cfbc b350 8c3d
000001e0: ba58 66bb 1788 1a3d d917 15bd bbb5 f73b
000001f0: 62cf 863d 4e48 0d3e 45c5 8dbd 6fb5 a9bd
00000200: ec4f 1fbc 205d bf3b 7adb 7abc ec56 6ebd
00000210: 6985 b13d e818 573e d5cf 113e e09e 773d
00000220: f9c1 823c 35a8 80bc 22cb 78bc 6dd5 65be
00000230: b4ef e7ba 4e36 71be 88f9 713d d0e8 b23c
00000240: 6ac1 d43c d65a 84bd fead 2dbe b46a 8f3d
00000250: 3e0f 30bd 6368 c7bd e75a 18be 0176 a6bd
00000260: 7d0d 6c3d 3071 16be 4f92 143e 2daa 0f3d
00000270: d1b0 06bd 467c 973d e431 d7ba 55b6 833c
00000280: c6ad c0bd ceb6 96bd 294f 8cbc 05e6 bdbd
00000290: 8b15 bdbd 7598 eebd 1a04 dc3d eef1 b5bd
000002a0: 8c5b a0bc 5140 60bd b05f 96bd 59cb 07bd
000002b0: b876 ad3c 7661 083e 211f 88bd cd51 803d
000002c0: 36a2 543d 995f 20be b5ed 603d 1310 cdbd
000002d0: 7edc 98bd 28ba 423d 6b34 d7bd 1765 bcbd
000002e0: 6fc5 de3d b55f 863d 3c0f abbd 8910 2dbe
000002f0: a30f 93bd 513d cd3d 7885 aabd d1e5 a7bd
00000300: e081 45be 4f67 63bd c849 cbbd 0ef0 513d
00000310: 5ffb 47bd 16e4 69be 7d7e dbbd f8af f5bc
00000320: e6a1 5fbe 9fae 003d 9a02 38bd da30 83bc
00000330: 6bc4 15be 45f7 fdbc 3d54 ae3d 301d f83d
00000340: 78e1 d43d 9f44 9e3d 941c fd3d 2553 c93d
00000350: 00b2 b1bd a7aa 9939 0a19 453e b5c4 4c3d
00000360: 5bf6 0c3c 5f59 dd3c a2e2 083c 3ffb 29be
00000370: 6f54 3f3c f780 863d 8127 e63d 0aaf 213e
00000380: 9dd5 1d3d 57d1 81bd 589b b93d 10f2 4fbd
00000390: d1c7 a73d db91 19bc 003d 8ebd fecf ccbc
000003a0: 341c 81bc e9f8 c1bd e393 08bb e170 c33d
000003b0: 229e 223e 64e0 71be 2eb2 57be cc3f 56bd
000003c0: 3578 c1bc 4a4a da3d 53a1 9b3d a48f dcbc
000003d0: 05ff 8f3d f094 bb3d 7d43 0b3e d30e 193c
000003e0: e5ca b23d 8752 a23d e49c c93d 5cf9 ae3a
000003f0: 5b89 49be 08eb 103d 3b1d 9a3d d7f7 3ebd

fc3.bias f4 [32]
-0.06279675 0.00097558385 0.014252999 0.055476215 0.058583025 -0.02646964 0.022485578 -0.012372641
-0.020485714 -0.058878735 0.114214025 -0.041696273 0.004094533 -0.07718134 0.12440473 0.08406494
-0.0990253 -0.03181079 -0.08396715 0.059024572 -0.1129715 -0.0069569387 0.007486603 0.06214431
-0.13119541 0.067838214 0.08006664 0.0053416085 0.11774745 -0.071301535 0.10183906 0.060272172
00000000: 959b 80bd 53be 7f3a 6985 693c 073b 633d
00000010: c1f4 6f3d dcd6 d8bc ad33 b83c 9eb6 4abc
00000020: a8d1 a7bc d42a 71bd 0be9 e93d b6c9 2abd
00000030: 6f2b 863b 4011 9ebd e8c7 fe3d 3d2a ac3d
00000040: c7cd cabd 084c 02bd f8f6 abbd c0c3 713d
00000050: 9a5d e7bd 08f7 e3bb 2e52 f53b 088b 7e3d
00000060: 1758 06be c3ee 8a3d fbf9 a33d a908 af3b
00000070: 9325 f13d 8a06 92bd ff90 d03d f4df 763d

bn3.weight f4 [32]
0.99665123 0.98928195 1.0809177 0.70829135 1.0059268 1.0046431 0.97743624 1.0665703
0.98768485 1.0319225 0.916548 0.9994112 1.0310041 1.0323012 0.966646 0.97328335
0.97049344 1.0513232 1.029224 1.0181648 0.9498429 0.8622628 0.9857646 0.95527786
1.0667933 1.0706818 0.9507323 1.0746564 0.9618841 0.9440607 0.9842483 0.97662354
00000000: 8924 7f3f 9541 7d3f 835b 8a3f 9552 353f
00000010: 36c2 803f 2598 803f 4339 7a3f 6085 883f
00000020: ead8 7c3f 0916 843f e4a2 6a3f 6ad9 7f3f
00000030: f1f7 833f 7222 843f 1d76 773f 1929 793f
00000040: 4272 783f c291 863f 9dbd 833f 3953 823f
00000050: e728 733f 41bd 5c3f 125b 7c3f 178d 743f
00000060: af8c 883f 1a0c 893f 3163 733f 578e 893f
00000070: 093e 763f f6ad 713f b2f7 7b3f 0004 7a3f

bn3.bias f4 [32]
-0.096720435 -0.039064478 0.044434834 -0.34428892 0.048954103 -0.002163336 -0.030219913 0.12795104
-0.06286303 -0.042059414 -0.23312384 0.0003969522 -0.019199472 -0.0042753504 0.008917272 0.046031956
-0.03290944 -0.06871699 -0.013075552 0.13170092 0.007496558 -0.132096 0.0108394995 -0.03502956
0.113316484 0.008791179 0.06276839 0.10664534 -0.011524198 -0.07260285 0.027277477 -0.03330898
00000000: 5d15 c6bd 1302 20bd 4d01 363d a346 b0be
00000010: 1984 483d c1c6 0dbb c08f f7bc 9905 033e
00000020: 55be 80bd 7e46 2cbd 04b8 6ebe 061e d039
00000030: 3648 9dbc 3d18 8cbb c019 123c 018c 3c3d
00000040: 0dcc 06bd 7ebb 8cbd d73a 56bc 9bdc 063e
00000050: b0a5 f53b 2c44 07be 2898 313c 287b 0fbd
00000060: 7912 e83d e108 103c b78c 803d df68 da3d
00000070: fdcf 3cbc ceb0 94bd 0475 df3c ff6e 08bd

bn3.running_mean f4 [32]
-0.10718638 -0.29975495 -0.5344161 0.104469106 0.15699351 -0.41343653 -0.16663735 -0.07094068
0.094036885 -0.36241466 0.6456185 -0.47618157 -0.7605801 -0.302833 -0.03478084 -0.55602473
-0.3924021 0.0011320038 -0.2945448 -0.31592494 -0.009191005 -0.43857566 -0.17837378 -0.015934391
-0.89913756 -0.16288419 -0.34328735 -0.5390775 0.097579226 -0.20238361 0.12944339 0.06737845
00000000: 8884 dbbd 7b79 99be 7ecf 08bf e6f3 d53d
00000010: e8c2 203e f4ad d3be fba2 2abe 5949 91bd
00000020: 6996 c03d 6a8e b9be 4147 253f 12ce f3be
00000030: 61b5 42bf ed0c 9bbe 5b76 0ebd a357 0ebf
00000040: eee8 c8be bf5f 943a 93ce 96be eac0 a1be
00000050: de95 16bc fd8c e0be 9ea7 36be d788 82bc
00000060: e12d 66bf 1dcb 26be 5cc3 afbe fc00 0abf
00000070: 9ed7 c73d a63d 4fbe cf8c 043e b6fd 893d

bn3.running_var f4 [32]
0.17406423 0.22807865 0.3078266 0.29521614 0.29425046 0.28474563 0.15450142 0.5021641
0.18364836 0.2580758 0.2875839 0.2177684 0.26012668 0.28510624 0.23341377 0.55122995
0.29375365 0.36962518 0.3275919 0.46936208 0.36709613 0.17317185 0.24710087 0.4472179
0.50836587 0.35367814 0.4378698 0.5212825 0.30320486 0.30365515 0.34084323 0.27274832
00000000: e53d 323e 738d 693e 739b 9d3e 9226 973e
00000010: ffa7 963e 2eca 913e 9f35 1e3e d48d 003f
00000020: 510e 3c3e 8322 843e 323e 933e aefe 5e3e
00000030: 532f 853e 72f9 913e 0504 6f3e 681d 0d3f
00000040: e166 963e 833f bd3e 20ba a73e 3a50 f03e
00000050: 06f4 bb3e f653 313e 0308 7d3e bff9 e43e
00000060: 4424 023f 4d15 b53e 7830 e03e c572 053f
00000070: ab3d 9b3e b078 9b3e 0183 ae3e aba5 8b3e

fc4.weight f4 [1, 32]
-0.078730635 0.08656841 -0.09824479 -0.043794993 -0.090446636 0.10628505 -0.046828754 0.22357315
-0.06924758 -0.19723791 -0.075077645 -0.108936675 -0.07470429 -0.0999527 0.10823721 0.09244746
0.113606036 0.10832751 0.104164906 0.20218864 0.12654972 0.021972703 0.13200924 0.109947816
-0.12173164 -0.20095702 0.12331224 -0.19308977 0.05365206 0.045260932 -0.07968692 0.1435814
00000000: 873d a1bd c74a b13d 9134 c9bd 6162 33bd
00000010: 163c b9bd faab d93d 82cf 3fbd 5cf0 643e
00000020: add1 8dbd bcf8 49be 4fc2 99bd 311a dfbd
00000030: 90fe 98bd 00b4 ccbd 78ab dd3d 1855 bd3d
00000040: 48aa e83d d0da dd3d 6954 d53d 8a0a 4f3e
00000050: 4096 013e 1900 b43c 6e2d 073e 522c e13d
00000060: 704e f9bd adc7 4dbe 218b fc3d 53b9 45be
00000070: 43c2 5b3d 8763 393d e532 a3bd 0107 133e
